my_sign_language_model_quantized.tflite (tflite, 141824 bytes, 10 tensors)

arith.constant f4 [32]
000000 ae 35 2a bc 3a 3c db bb fd d6 e3 bd 00 7c 19 3a
       -0.010388775 -0.006690529 -0.1112499 0.0005854964
000010 c9 75 cb bb 30 2d 9a bb 1b e6 00 be 53 84 c0 bb
       -0.0062091094 -0.004705094 -0.12587778 -0.0058751493
000020 71 56 e5 bb 64 99 d8 bb 01 79 d0 bb 42 ac 35 bd
       -0.00699883 -0.0066100825 -0.006362081 -0.04435373
000030 ec b1 00 3d 75 e1 49 3d e0 e8 8b 3c 67 76 f2 3c
       0.03141968 0.04928728 0.017078817 0.029597474
000040 c1 db db 3c 60 e7 b2 3c 34 3d ea bb 91 fe fa bd
       0.026838185 0.021838844 -0.0071484093 -0.12255586
000050 83 1a 86 bb f3 ff 8a 3c 4f 87 f7 3c ce 17 8f bd
       -0.004092516 0.01696775 0.030215887 -0.06986962
000060 dd b9 be bd 5c de b6 bb 1c 4b e8 bd 0a 1c 08 3d
       -0.09312794 -0.0055807065 -0.11342451 0.033229865
000070 a9 c8 2f bd 09 12 fe bb 52 50 03 3d ae 4c 44 3d
       -0.042915974 -0.007753615 0.03205902 0.04792469

arith.constant1 f4 [32, 3, 3, 1]
000000 a1 af 09 be 74 6c f5 bd b2 09 ee 3d 24 ed 88 3d
       -0.13445903 -0.119835764 0.11622943 0.06685856
000010 76 32 93 3c e8 5f 72 bd 2b 2a a7 3d 5d a3 07 bb
       0.017968398 -0.059173495 0.0816234 -0.0020696737
000020 06 ce 9a 3d 4f 0d d8 3d d2 11 00 be 24 ef d6 3c
       0.07558827 0.105494134 -0.12506798 0.026237078
000030 93 ae d3 bd 2b e8 f7 3d a9 46 ab 3d 19 a7 e5 bd
       -0.10336032 0.121048294 0.08363087 -0.11213512
000040 e1 61 d1 3d 19 f0 16 bc 4b 0a 78 3f f6 63 ce 3f
       0.10223747 -0.009212517 0.96890706 1.6124256
000050 76 8b 8b 3f ee 8a 5b 3f 97 6e 99 3f d0 64 95 3f
       1.0901935 0.85758865 1.1986874 1.167139
000060 d0 72 16 3f db 0d 1d 3f 96 e1 5d 3f 39 9f 8c bf
       0.5876894 0.61349267 0.8667234 -1.0986091
000070 b9 35 43 c0 94 08 e4 3e dd 6a 1e c0 12 85 7c c0
       -3.050154 0.44537795 -2.4752724 -3.945622
000080 ff 37 c4 3f 3a f1 e6 bf e0 24 c1 bf c2 5c 27 40
       1.5329589 -1.8042367 -1.5089378 2.6150365
000090 62 92 34 3d 18 65 ff 3c d2 70 d7 3c 59 6d 3b bd
       0.044084914 0.031176135 0.026298914 -0.04575858
0000a0 f6 99 5c bd 9e 2d c1 bd 9a ab c3 3d 56 c4 0b bd
       -0.053857766 -0.09432529 0.09554215 -0.034122787
0000b0 ba b9 af 3d 89 9a ca bc 95 c5 84 bc c4 6c d2 3d
       0.085803464 -0.024731891 -0.016207496 0.10274652
0000c0 40 62 89 3d d7 90 ef 3d 71 ef 43 3d 9d fb 4c 3c
       0.06708193 0.11697548 0.04783577 0.012511161
0000d0 06 9f 94 bd 91 6d d0 3a 3a f2 4a 3f ba 0c c0 be
       -0.07256894 0.0015901794 0.7927586 -0.3750971
0000e0 40 c0 35 c0 cf 0d a0 be 54 89 c6 bf 52 dc 54 c0
       -2.839859 -0.31260535 -1.5510659 -3.3259473
0000f0 96 30 11 bf 50 68 10 c0 a8 79 0d c0 00 48 44 bd
       -0.5671476 -2.2563667 -2.2105503 -0.047920227
000100 5d 6b f1 3d e5 eb d0 bd ca f2 53 3c 95 b0 b4 bd
       0.11788056 -0.10201243 0.012936303 -0.08822743
000110 5c 48 5f bd 37 0a 9b bd 51 0d 15 3e 06 84 5a bd
       -0.054512367 -0.07570308 0.14555861 -0.053348564
000120 2b d0 3f bc 85 0d cd 3c 4a 69 8e 3d 96 8b 35 bd
       -0.011707346 0.02503086 0.06953676 -0.044322573
000130 2b d5 ae bd de ae a6 bd 05 9c 15 bd f0 94 af 3d
       -0.08536752 -0.08138822 -0.036525745 0.085733294
000140 b9 24 08 3e 79 a8 81 bd 74 74 97 3d af 6c f9 bd
       0.13295259 -0.06330962 0.073952585 -0.12178933
000150 4a 78 32 3d d7 2a 93 b8 5d 5b e7 bc 11 fe 07 3e
       0.043571748 -7.017486e-05 -0.028241808 0.13280512
000160 db 5b 31 bc 29 d2 3d 3d f9 48 e9 3b 8d cf 1d bd
       -0.010825123 0.046343002 0.0071192947 -0.038528014
000170 02 a6 9d bd 4d 49 18 bd b1 ec 72 3b 8e 91 80 3c
       -0.07697679 -0.03717928 0.0037067349 0.015694406
000180 82 56 a4 bd d7 33 d8 3d b0 cc 1b bd d5 e2 a9 3f
       -0.080243126 0.10556763 -0.038037002 1.3272349
000190 a5 1a f4 3f 89 32 bf 3f 02 c6 b7 3f a6 c3 ee 3f
       1.9070631 1.4937297 1.4357302 1.8653457
0001a0 51 fc db 3f 8c 59 8a 3f ff 38 99 3f 82 54 dd 3f
       1.7186376 1.0808578 1.1970519 1.7291415
0001b0 52 3e 95 3f 67 60 36 bf 62 bd 1f c0 1b 23 73 3e
       1.1659644 -0.7124085 -2.495934 0.2374386
0001c0 75 f7 11 c0 bd c7 1b c0 0b eb 4a be dd 54 e6 bf
       -2.2807286 -2.434066 -0.19816224 -1.7994648
0001d0 5a 53 d7 be 72 b4 99 3f a5 c1 0a 40 8d 2a 9a 3f
       -0.4205578 1.2008193 2.1680691 1.2044235
0001e0 ee f0 8e 3f d4 39 d3 3f 72 12 9c 3f 88 7d dc 3e
       1.1167276 1.6502023 1.2193129 0.43064523
0001f0 5d eb 88 3e 21 53 4b 3f 8a cf 88 bc e9 6b 18 c0
       0.26742068 0.7942372 -0.016700525 -2.3815863
000200 6a 8b 23 3f a4 b3 e8 bf 61 f4 6e c0 8f e7 ab 3f
       0.63884604 -1.8179822 -3.7336657 1.3430041
000210 3b 51 82 bf 79 de 39 bf 92 d6 0f 40 23 a5 0c 40
       -1.018104 -0.7260509 2.2474713 2.1975791
000220 63 f2 02 40 98 37 71 c0 e1 da 91 3f 8d 6c b1 3f
       2.046044 -3.7690182 1.1394922 1.3861252
000230 94 fe 74 c0 ac 51 7e 3e a0 9a 9e 3d 0f 5a 75 c0
       -3.8280382 0.24835843 0.07744336 -3.8336217
000240 4a 04 d9 3e ad bc 00 c0 ee 5e 09 bf 08 39 6d bf
       0.42386085 -2.0115159 -0.53660476 -0.9266515
000250 15 39 82 c0 8e 6a 8b bf bc f1 3d bf b6 f5 20 c0
       -4.069468 -1.0891893 -0.7419698 -2.514997
000260 ea 80 f6 bc de c6 d3 3f 45 62 fe bf f1 95 45 3e
       -0.030090768 1.6545064 -1.987374 0.1929548
000270 6a 66 03 3f f4 dc 60 c0 2a 0c b9 be cc c9 12 be
       0.51328146 -3.513486 -0.36142093 -0.14334792
000280 19 6e 4b c0 d3 07 8e bd 29 bc 5c 3d 78 ff 81 bd
       -3.1785948 -0.06935086 0.05389038 -0.06347555
000290 a0 0a 4f 3d af df a0 bd d5 48 cb bc 9a 9a 6b bc
       0.050547242 -0.07855164 -0.024815002 -0.014380122
0002a0 a3 d9 0e be 4c 7b de 3d f7 bb 00 3e d5 d8 83 3f
       -0.1395021 0.10863361 0.12571703 1.0300547
0002b0 1f 2c cd 3f 41 3b 83 3f 40 8a 72 3f 13 ab c2 3f
       1.602909 1.0252458 0.947422 1.5208458
0002c0 56 40 9c 3f 51 73 28 3f 87 55 1d 3f 8d d3 75 3f
       1.2207134 0.6580096 0.6145863 0.96025926
0002d0 85 98 ab bd a3 96 82 bd ce 0c 40 bc 77 36 02 3e
       -0.083787 -0.06376388 -0.011721803 0.12716089
0002e0 17 b5 df bd 20 ca 11 3e 37 51 77 3d 92 cc ed 3d
       -0.10923212 0.14237261 0.060380187 0.11611284
0002f0 66 d0 2f bd b8 f0 8b 3f 34 a4 06 40 8e 95 b1 3f
       -0.042923354 1.0932837 2.1037722 1.3873765
000300 c0 00 85 3f 8a 3e d4 3f 85 19 bb 3f 1f c5 19 3f
       1.0390854 1.6581585 1.4617163 0.6006641
000310 84 03 ef 3e 16 9a 42 3f fd 30 fe 3f a4 f0 38 bb
       0.4668237 0.76016366 1.98587 -0.0028219605
000320 cb cf 82 c0 a2 e0 90 3f 2b 29 49 bf f7 c0 5b c0
       -4.0878654 1.1318552 -0.7857844 -3.4336526
000330 7b f5 97 3f 68 45 2e be 92 db 93 bf 25 a5 89 bf
       1.187179 -0.17018664 -1.1551383 -1.0753523
000340 e3 c7 0a c0 9b 18 fd bf e8 4e f8 bf b2 e9 5d c0
       -2.16845 -1.9773134 -1.939908 -3.4673886
000350 81 2f d8 bf 28 05 d9 bf 81 bb fc bf 5e 50 f9 bd
       -1.6889497 -1.6954699 -1.9744722 -0.12173532
000360 1f 32 c4 3f 78 78 fc 3f 85 a1 e7 3f 99 7b e3 3f
       1.5327796 1.9724264 1.8096167 1.7772094
000370 78 58 ef 3f f8 c0 ff 3f d3 e8 ed 3f 1d e3 c4 3f
       1.8698874 1.9980764 1.8586677 1.538181
000380 84 35 c1 3f a0 57 fa 3d 8c a5 0e bd d7 c5 26 3d
       1.5094457 0.122237444 -0.034825847 0.04071602
000390 11 c5 2f 3d fc db a7 3d 25 57 77 bd a1 c1 01 be
       0.042912547 0.081962556 -0.060385842 -0.1267152
0003a0 13 ed dc 3c 16 15 9b 3c 1d 15 80 3f 9d 1d d4 3f
       0.026968515 0.018930953 1.0006443 1.6571537
0003b0 0e 0a 60 3f 6a b8 67 3f cb 9d d0 3f 65 7d 8f 3f
       0.8751534 0.9051577 1.6298155 1.1210142
0003c0 fc 95 0b 3f 90 24 ed 3e 84 cd 2c 3f 00 75 1e 3f
       0.54525733 0.46316957 0.6750109 0.6189728
0003d0 bb 86 4e c0 2e 08 c7 be 1e 50 ed be a5 c1 6f c0
       -3.2269733 -0.38873428 -0.46350187 -3.7461941
0003e0 8f 22 1b 3d b6 11 f3 3d 1a c4 87 bf 42 7f bc 3f
       0.037874755 0.118686125 -1.060672 1.4726336
0003f0 0d 71 cf 3f e1 42 a8 bf 1a 9a 90 bf 30 4b 15 3f
       1.6206375 -1.314541 -1.1297028 0.5831785

arith.constant3 f4 [25]
000000 76 0e 20 3e f7 db 31 bd 7b 65 62 bf 30 0f a1 3f
       0.15630516 -0.043422665 -0.88436097 1.258276
000010 17 85 57 bf d1 f6 45 3f 25 2d 1e 3f a0 d3 5c 3f
       -0.84187454 0.77329737 0.61787635 0.86260414
000020 02 8a 7d 3e 09 07 7d bf 77 bf d6 be 44 6a 97 3e
       0.24759677 -0.9883886 -0.4194295 0.29573262
000030 b4 8e 83 3e 19 a8 1f 3e d5 b4 5b bf 11 76 27 bf
       0.2569481 0.15591468 -0.858228 -0.6541453
000040 6d c1 d1 bf 1f e1 e9 be 26 00 77 3e 71 01 07 3e
       -1.6387154 -0.45679566 0.2412115 0.13184144
000050 79 e1 46 3f 66 5b 38 3f da 97 c0 be 2d bb 77 bf
       0.77687794 0.7201446 -0.37615854 -0.9676998
000060 a9 5b 62 be
       -0.22105278

arith.constant4 f4 [128]
000000 c5 d6 dd 3c c9 f3 37 bc 59 d5 d6 bd 1c 48 29 bd
       0.02707995 -0.0112275565 -0.104899116 -0.041328534
000010 8c 3a 1b 3e 2f 9e 37 bd 36 87 a8 be 61 ac d6 be
       0.15159053 -0.04482859 -0.32915658 -0.4192839
000020 7b 65 c4 3d 08 17 3e 3e 11 fb 13 be 48 f8 ea bd
       0.09589668 0.18563473 -0.14451243 -0.11473137
000030 44 97 83 bd 31 2d 5c bd 98 0d 6a 3e 94 ed d2 be
       -0.06425336 -0.053754035 0.22856748 -0.41196883
000040 c9 24 02 3d 7c db ba 3b 52 e7 6f 3e 71 1d c3 bd
       0.031773362 0.005702434 0.23428085 -0.095271
000050 fb 32 f0 bd a0 a5 c0 be f9 23 43 3e 6d 6b 35 3e
       -0.11728474 -0.37626362 0.19056691 0.17716761
000060 31 e5 40 bc 86 2c 0d be 2a dc d0 be e4 48 b1 bc
       -0.0117733935 -0.13786516 -0.40792972 -0.021641202
000070 c1 4d 04 bd 59 a1 50 3e 93 50 d3 3e 60 7a c7 3e
       -0.032300714 0.20374049 0.4127241 0.38960552
000080 b2 8d 40 bd 51 da b0 bc 1f a3 c1 bd 2c 2a c4 bd
       -0.04701013 -0.021588476 -0.09454941 -0.09578356
000090 a1 0c 08 bd 41 2b 8a 3d 9e 6b e4 3d bc f0 5b be
       -0.03321517 0.06746531 0.11153339 -0.21478552
0000a0 bd df cd be 6a 74 d2 bc c0 8e 49 3e 52 2d 2f 3e
       -0.4020976 -0.025690276 0.19683361 0.17107132
0000b0 f0 97 ea be ce d4 c3 3c 27 2d c2 3e 45 cb 0a be
       -0.45819044 0.023905184 0.37925074 -0.13554104
0000c0 e5 4b 35 bc d5 9f fb 3c 72 05 1d bd 1a a9 67 bd
       -0.011065458 0.030715862 -0.03833527 -0.056557752
0000d0 f2 54 8c be 9c 5d 04 bd 1f 8b 9b 3e 5e 22 9a 3d
       -0.27408558 -0.032315835 0.30379578 0.07526086
0000e0 18 df dc bc b2 4d 8e 3d 0e 46 ed bc 1a c4 bb bc
       -0.026961848 0.06948413 -0.028964069 -0.022920657
0000f0 b3 81 b1 3d ad 90 c9 bc 35 2d 72 be 30 8b ed bc
       0.08667316 -0.02460512 -0.23650058 -0.028997034
000100 c0 c6 fe bd 6f 53 57 bd f8 04 39 3d 0e 14 01 bd
       -0.12440252 -0.052569803 0.045170754 -0.031513266
000110 53 51 67 be 29 17 49 3d 4a 52 97 be e6 58 04 be
       -0.22589616 0.049094353 -0.2955497 -0.12924537
000120 8b 69 81 be ee cb fb bd 0d 4f 9d bc 6f 3e 5e 3e
       -0.25275835 -0.12294756 -0.019202733 0.21703504
000130 5e 8e ba 3e 73 e8 1c 3e e0 92 08 3e 45 c6 50 be
       0.36436743 0.15323047 0.13337278 -0.20388134
000140 bc 05 64 bd 7a c1 ae be a8 70 5a 3e 23 76 42 3d
       -0.05566953 -0.34131986 0.21332037 0.047475945
000150 72 11 83 3e 84 0d 1e bd 34 7e 7f be cc 32 9c bc
       0.25599247 -0.03858711 -0.24950486 -0.01906719
000160 cb fe db bc 4b 0c 97 bc 91 ed ad bd 30 25 aa 3e
       -0.026854893 -0.018438479 -0.08492578 0.33231497
000170 2a d1 e3 3e ed e0 78 3e 89 20 85 3e ee 78 aa bc
       0.44495517 0.24304552 0.26001385 -0.020809617
000180 16 97 69 bc f7 b8 f8 be 6f 7e 81 3d 33 29 af bd
       -0.014257213 -0.48578617 0.063229434 -0.0855278
000190 45 34 1c bd c7 a6 31 be cc 0f f2 3c 88 db 13 3e
       -0.038135786 -0.17348777 0.029548548 0.14439213
0001a0 54 a6 1c be 6a 47 a5 bd 6d 22 20 bd d4 b1 af 3e
       -0.15297824 -0.08070262 -0.03909533 0.3431536
0001b0 89 d6 82 bd e3 58 04 3f 25 a4 34 be 73 c3 5d 3d
       -0.063885756 0.5169813 -0.17640741 0.054141473
0001c0 69 50 b1 bc db eb 95 be 24 08 85 bd f1 d7 a5 3e
       -0.021644788 -0.29281506 -0.06495693 0.32391313
0001d0 98 78 8e bd dd a8 dd 3d 95 58 bf 3c 17 fe 9f 3d
       -0.06956595 0.10823224 0.023357669 0.07812136
0001e0 0c dd b2 bb 3d 6c 6c bc 93 14 84 bd 75 fd 58 3e
       -0.0054584797 -0.014430103 -0.06449237 0.21190436
0001f0 32 03 78 be 03 71 bb be 6b b9 71 bd ff db 8b be
       -0.24219969 -0.3660966 -0.05901472 -0.2731628

arith.constant5 f4 [64]
000000 a9 ae 05 bd 4e 2f c2 bd d0 ec 12 bd f8 4f 07 bd
       -0.032637272 -0.09481679 -0.035870373 -0.03303525
000010 7a 18 35 bd 93 5c fa 3d 81 4e de bb 6d f9 65 bc
       -0.044212796 0.122246884 -0.0067842607 -0.0140365185
000020 dd a8 2b bb ec 47 ab bc 5f 23 dd bd df d8 03 bd
       -0.002619318 -0.020908318 -0.10797762 -0.032189246
000030 b2 d8 d7 bc e8 d0 d9 bc 57 b6 c9 3e ad c6 06 bd
       -0.026348446 -0.026588872 0.39396927 -0.032904316
000040 73 ed 61 bc 3c b4 06 bd 2b 07 16 be 49 db 1e bd
       -0.013789522 -0.03288673 -0.14651172 -0.038783345
000050 1f 30 15 be 5f 16 c0 3d 8f 89 cc bc e6 e2 96 bc
       -0.14569138 0.09379267 -0.024967937 -0.01841874
000060 c9 ef 93 bc d4 72 2e bd 22 f6 09 bd bb 8f 8e bc
       -0.018058674 -0.042589977 -0.033681996 -0.01740252
000070 ff ec 1e bd 50 bc 11 bc 04 34 77 3e 1c fb 52 bc
       -0.038800236 -0.008894995 0.24140936 -0.012877252
000080 84 56 ef bc 27 bb 20 bd b9 57 d3 3d 41 4b 43 bd
       -0.029216059 -0.039240982 0.10319466 -0.04767919
000090 17 cb 2b bd a6 01 2a bd 01 02 28 bd cb 18 fa bc
       -0.04194173 -0.04150548 -0.041017536 -0.0305294
0000a0 0d b8 04 bd 41 84 16 bd 52 91 41 be 7e e8 fb 3d
       -0.032402087 -0.03674722 -0.18903092 0.12300204
0000b0 42 f7 5a 3d 85 6b d3 bb f2 0e 74 bd ee 94 21 bd
       0.05345846 -0.0064520263 -0.059584565 -0.03944867
0000c0 20 19 33 3e 08 65 cd bd 01 59 13 bd 23 c1 b9 be
       0.17490053 -0.10029036 -0.035973553 -0.36280164
0000d0 de 05 be bc fb c7 00 bd e3 a3 cd bc 51 52 9d bc
       -0.023196157 -0.031440716 -0.025102561 -0.01920429
0000e0 72 64 0c bd 4b 36 41 bd e3 b2 7e bc 0e 12 91 bc
       -0.03427548 -0.04717092 -0.01554558 -0.017708804
0000f0 22 0b f2 3b 6f c7 77 bd 29 ad 36 3e d2 30 ca bc
       0.007386581 -0.06049293 0.17839493 -0.024681482

arith.constant6 f4 [64]
000000 7b d7 d7 bb ef 4d d6 bd 79 d0 ba be 17 c0 9a be
       -0.0065869666 -0.104640834 -0.36487177 -0.30224678
000010 20 17 38 be 35 b7 fb bd 8c f1 53 bd 8c 61 1a bd
       -0.17977571 -0.12290803 -0.05174403 -0.037690684
000020 50 b0 cd bc 6d df 14 be 1d 8c 2c bd 35 bb c4 bb
       -0.025108486 -0.14538355 -0.04212581 -0.006003762
000030 b4 d9 32 be 93 4f 02 bd f3 f6 b9 bb ce 22 19 bd
       -0.1746586 -0.03181417 -0.0056751906 -0.037386708
000040 03 1e 1a be bb d2 af bb 8d f2 59 bc fc 81 ce bd
       -0.15050511 -0.005365697 -0.0133024575 -0.10083386
000050 a8 62 1a bd a4 8d 1a bd e3 dc d5 bb 86 40 0c bc
       -0.037691742 -0.037732735 -0.006526576 -0.008560305
000060 ff d5 c1 bc 53 15 e3 bc 6e 0f 08 bd 7e bd b9 bc
       -0.023661612 -0.02772013 -0.03321784 -0.022673365
000070 4c c2 12 bc e5 90 30 3d b0 6e 66 bd 12 32 e5 3b
       -0.008957457 0.043106932 -0.056257904 0.0069944942
000080 ee c3 61 bd 35 ac 6e be fd 37 23 bc ef e1 cd bd
       -0.055118494 -0.2330788 -0.009962079 -0.10052859
000090 6e 7f 52 bc 25 2c dc bc 38 72 db bb 22 e4 8d bd
       -0.012847764 -0.026876519 -0.0066969655 -0.069282785
0000a0 37 11 ae bd 41 9a 1e bd 6e 68 1b bc f2 86 16 bd
       -0.08499377 -0.038721327 -0.009485347 -0.036749788
0000b0 1d 9b 20 be 45 02 d1 bd 5b d3 4c bd f0 e7 d7 bc
       -0.15684171 -0.10205511 -0.05000625 -0.026355714
0000c0 33 23 0b be 0d ee 08 bd c5 22 ce be ff 85 4d 3d
       -0.13587646 -0.033430148 -0.40260902 0.050176617
0000d0 3b f9 69 be a6 26 cb bb 68 25 ca bc 8e 81 54 bd
       -0.2284898 -0.0061996756 -0.02467604 -0.051881365
0000e0 60 15 f1 bd ee 88 09 bd 55 d4 9a bc 90 24 99 3c
       -0.11771655 -0.033577852 -0.018900076 0.018694192
0000f0 79 6e 07 3e f2 a3 2d be 6b 1c a8 bc 2d 71 bc be
       0.13225736 -0.16957071 -0.020521363 -0.36805096

tfl.pseudo_qconst i1 [64, 3, 3, 64]
000000 27 f2 00 88 08 2e f2 37 ae a4 3b ce c1 0e 0d e7
       39 -14 0 -120 8 46 -14 55 -82 -92 59 -50 -63 14 13 -25
000010 1a 15 b6 2c 24 0d 43 c6 e6 3b 0d 51 c5 b0 fa c6
       26 21 -74 44 36 13 67 -58 -26 59 13 81 -59 -80 -6 -58
000020 2e c4 8b d4 54 0c f5 82 d1 c8 b3 ee ab d5 c6 b3
       46 -60 -117 -44 84 12 -11 -126 -47 -56 -77 -18 -85 -43 -58 -77
000030 cd f6 ed de 9d b8 ce 31 ff 2b 04 d0 bd 88 ff 45
       -51 -10 -19 -34 -99 -72 -50 49 -1 43 4 -48 -67 -120 -1 69
000040 c4 98 af e5 f3 88 ee c4 c4 92 e3 ae 9d 1c ea ce
       -60 -104 -81 -27 -13 -120 -18 -60 -60 -110 -29 -82 -99 28 -22 -50
000050 da b0 bd f2 bb bd 48 fb d4 31 14 41 ce f4 13 d4
       -38 -80 -67 -14 -69 -67 72 -5 -44 49 20 65 -50 -12 19 -44
000060 e8 d2 1d 9b e3 d4 22 a3 14 c5 14 c6 8e 1e 0f 4f
       -24 -46 29 -101 -29 -44 34 -93 20 -59 20 -58 -114 30 15 79
000070 a7 e2 19 ca eb c3 27 d3 97 dd d1 da da d6 a3 ac
       -89 -30 25 -54 -21 -61 39 -45 -105 -35 -47 -38 -38 -42 -93 -84
000080 32 e5 93 15 cf 87 c8 29 dd 0f 19 fe 2b 26 3b a7
       50 -27 -109 21 -49 -121 -56 41 -35 15 25 -2 43 38 59 -89
000090 27 96 e6 25 d1 30 fb 10 1b 38 04 c9 06 0e 51 f7
       39 -106 -26 37 -47 48 -5 16 27 56 4 -55 6 14 81 -9
0000a0 ba 14 f6 a9 16 1d b0 10 d4 0b 34 c6 dd 08 27 b1
       -70 20 -10 -87 22 29 -80 16 -44 11 52 -58 -35 8 39 -79
0000b0 09 09 a1 92 97 bf 4d 30 25 3e cd aa 19 ad 11 f8
       9 9 -95 -110 -105 -65 77 48 37 62 -51 -86 25 -83 17 -8
0000c0 08 db 06 f5 3e c3 27 21 ba b1 b3 e5 17 cb c1 2d
       8 -37 6 -11 62 -61 39 33 -70 -79 -77 -27 23 -53 -63 45
0000d0 09 09 17 bf df c9 4e d1 d9 ac f0 b9 ed b6 d3 f6
       9 9 23 -65 -33 -55 78 -47 -39 -84 -16 -71 -19 -74 -45 -10
0000e0 d9 f4 b8 a3 b4 12 c6 c7 93 ac 12 c2 03 e1 f3 bf
       -39 -12 -72 -93 -76 18 -58 -57 -109 -84 18 -62 3 -31 -13 -65
0000f0 fb bd a3 cb 2c a2 43 fa c7 ba da e4 fc e6 b7 2d
       -5 -67 -93 -53 44 -94 67 -6 -57 -70 -38 -28 -4 -26 -73 45

tfl.pseudo_qconst1 i1 [64, 3, 3, 32]
000000 63 e5 32 81 a2 0b a9 36 92 be b6 b6 3a 3b 87 9a
       99 -27 50 -127 -94 11 -87 54 -110 -66 -74 -74 58 59 -121 -102
000010 de 89 d3 46 fd b2 e2 f7 49 21 13 ba f2 a5 a5 4e
       -34 -119 -45 70 -3 -78 -30 -9 73 33 19 -70 -14 -91 -91 78
000020 3a 50 55 35 1e a4 2e a7 c2 a3 1d 33 08 15 8c c9
       58 80 85 53 30 -92 46 -89 -62 -93 29 51 8 21 -116 -55
000030 29 ea 5a b5 06 eb 52 fe a1 56 a5 31 2a dd dd b8
       41 -22 90 -75 6 -21 82 -2 -95 86 -91 49 42 -35 -35 -72
000040 fe 6a fe 3b 65 97 e8 34 94 5d e6 c4 e9 1d 39 d4
       -2 106 -2 59 101 -105 -24 52 -108 93 -26 -60 -23 29 57 -44
000050 4c b0 cf fb 3b 9a a4 84 f2 be 64 c1 43 4e 01 c6
       76 -80 -49 -5 59 -102 -92 -124 -14 -66 100 -63 67 78 1 -58
000060 09 b0 b5 24 49 c1 df 35 2b e3 f3 8f 25 47 56 4b
       9 -80 -75 36 73 -63 -33 53 43 -29 -13 -113 37 71 86 75
000070 c6 e9 39 de a2 b1 b1 c3 40 40 ee 05 f0 56 33 95
       -58 -23 57 -34 -94 -79 -79 -61 64 64 -18 5 -16 86 51 -107
000080 06 38 f8 e0 e1 31 41 64 3c c4 27 97 1d 28 ce b5
       6 56 -8 -32 -31 49 65 100 60 -60 39 -105 29 40 -50 -75
000090 37 a1 4e 1c ca b6 2c 9e fa 59 38 f6 99 e5 da fe
       55 -95 78 28 -54 -74 44 -98 -6 89 56 -10 -103 -27 -38 -2
0000a0 e7 63 10 b1 4f a1 17 25 0e d5 c5 a4 04 94 a5 cd
       -25 99 16 -79 79 -95 23 37 14 -43 -59 -92 4 -108 -91 -51
0000b0 23 c4 15 35 05 10 f5 b2 ca fd e6 f1 dc 34 bc a5
       35 -60 21 53 5 16 -11 -78 -54 -3 -26 -15 -36 52 -68 -91
0000c0 c8 f4 09 a4 59 04 b8 0d 53 4e 0a 5e 99 b6 2a ae
       -56 -12 9 -92 89 4 -72 13 83 78 10 94 -103 -74 42 -82
0000d0 b9 b5 14 fc ce ff 1a 2c a7 35 61 ee 3c 37 42 d3
       -71 -75 20 -4 -50 -1 26 44 -89 53 97 -18 60 55 66 -45
0000e0 4b 39 92 db ba ee 07 38 d1 4e b4 16 3d dc 38 bd
       75 57 -110 -37 -70 -18 7 56 -47 78 -76 22 61 -36 56 -67
0000f0 e9 ce 67 bf ec a9 95 c4 17 d9 2d 96 4f 10 4c 89
       -23 -50 103 -65 -20 -87 -107 -60 23 -39 45 -106 79 16 76 -119

tfl.pseudo_qconst2 i1 [25, 128]
000000 0d 07 e1 fa 0b 00 b2 13 b2 d8 ac 97 08 f9 de 09
       13 7 -31 -6 11 0 -78 19 -78 -40 -84 -105 8 -7 -34 9
000010 0e ef cf 08 b0 16 0e 14 09 fc 01 d6 07 0c c6 cf
       14 -17 -49 8 -80 22 14 20 9 -4 1 -42 7 12 -58 -49
000020 08 ff bf f8 f6 0b b3 03 aa f3 f3 b8 ab db 0c c2
       8 -1 -65 -8 -10 11 -77 3 -86 -13 -13 -72 -85 -37 12 -62
000030 04 ca ba f9 ac fd b8 ae 0e f7 00 06 05 fa d4 fa
       4 -54 -70 -7 -84 -3 -72 -82 14 -9 0 6 5 -6 -44 -6
000040 0f bf 12 0b ae da ed ce 13 c3 08 0e 0e d9 d8 aa
       15 -65 18 11 -82 -38 -19 -50 19 -61 8 14 14 -39 -40 -86
000050 f2 e1 15 d7 cf 81 14 c2 f3 0b 12 10 dc ce fc 9f
       -14 -31 21 -41 -49 -127 20 -62 -13 11 18 16 -36 -50 -4 -97
000060 08 bf d5 90 9f cc 9c d3 0f fc ff b5 f8 9a bd 02
       8 -65 -43 -112 -97 -52 -100 -45 15 -4 -1 -75 -8 -102 -67 2
000070 c0 ff 0e 10 aa d7 09 c3 cc 01 fb d6 10 b0 07 d6
       -64 -1 14 16 -86 -41 9 -61 -52 1 -5 -42 16 -80 7 -42
000080 05 00 ea 00 e9 fe a7 d2 a3 b9 c4 99 f6 fe dd e6
       5 0 -22 0 -23 -2 -89 -46 -93 -71 -60 -103 -10 -2 -35 -26
000090 eb 0e 10 9d eb ce 10 06 02 01 e9 e0 f7 af fc 07
       -21 14 16 -99 -21 -50 16 6 2 1 -23 -32 -9 -81 -4 7
0000a0 fe f4 bd 0a 00 05 11 d1 9d fd 00 06 ff be 09 f9
       -2 -12 -67 10 0 5 17 -47 -99 -3 0 6 -1 -66 9 -7
0000b0 0a 03 ec f8 d1 03 0e 06 fa 1b fd 01 d3 03 b9 07
       10 3 -20 -8 -47 3 14 6 -6 27 -3 1 -45 3 -71 7
0000c0 db 08 d9 e4 fa fb d1 fb 0d f6 09 c4 a3 0d 0b 14
       -37 8 -39 -28 -6 -5 -47 -5 13 -10 9 -60 -93 13 11 20
0000d0 f8 df 12 11 0f 0f 81 08 00 fd a6 11 0f ff 05 a2
       -8 -33 18 17 15 15 -127 8 0 -3 -90 17 15 -1 5 -94
0000e0 03 b0 81 10 db d6 ff fb 0b f9 05 03 f9 02 06 11
       3 -80 -127 16 -37 -42 -1 -5 11 -7 5 3 -7 2 6 17
0000f0 04 cb f6 0e a9 0d 0d 07 ab 0a f7 f5 ca ac fb c5
       4 -53 -10 14 -87 13 13 7 -85 10 -9 -11 -54 -84 -5 -59

tfl.pseudo_qconst3 i1 [128, 576]
000000 fd d7 fb 0d 05 d3 09 f5 01 0a 39 fd 0f 0f 2b 09
       -3 -41 -5 13 5 -45 9 -11 1 10 57 -3 15 15 43 9
000010 01 02 f5 06 e9 f3 0c fb ff 07 0a 01 fc 08 ca f3
       1 2 -11 6 -23 -13 12 -5 -1 7 10 1 -4 8 -54 -13
000020 ff 07 fb f4 0b 01 17 ca f7 07 10 34 23 37 06 ff
       -1 7 -5 -12 11 1 23 -54 -9 7 16 52 35 55 6 -1
000030 f0 ac f9 fe 0a f5 f8 04 07 e5 f5 04 db c2 0d f5
       -16 -84 -7 -2 10 -11 -8 4 7 -27 -11 4 -37 -62 13 -11
000040 05 db f7 fa ff c6 f5 fb f5 09 00 f7 ff f9 44 0a
       5 -37 -9 -6 -1 -58 -11 -5 -11 9 0 -9 -1 -7 68 10
000050 06 03 04 0b 25 2d fd fb f8 f2 f3 0b f3 0d 26 07
       6 3 4 11 37 45 -3 -5 -8 -14 -13 11 -13 13 38 7
000060 01 09 23 e9 11 ff 0b db 07 f5 dc 2e 13 ea 05 05
       1 9 35 -23 17 -1 11 -37 7 -11 -36 46 19 -22 5 5
000070 76 cf 0a 33 f3 04 07 04 f4 21 02 01 d4 10 25 fb
       118 -49 10 51 -13 4 7 4 -12 33 2 1 -44 16 37 -5
000080 f9 ff 09 11 01 fa fd fa 02 ff d0 fc fa 0a e2 06
       -7 -1 9 17 1 -6 -3 -6 2 -1 -48 -4 -6 10 -30 6
000090 01 02 f6 08 f9 01 f6 00 0d fb 01 f3 08 f3 36 ff
       1 2 -10 8 -7 1 -10 0 13 -5 1 -13 8 -13 54 -1
0000a0 ff 06 08 01 f8 fa 0d 06 f5 01 e5 30 eb 0e 09 05
       -1 6 8 1 -8 -6 13 6 -11 1 -27 48 -21 14 9 5
0000b0 11 f7 fe 29 01 02 f5 f8 07 5a 08 0d 95 0b 49 fa
       17 -9 -2 41 1 2 -11 -8 7 90 8 13 -107 11 73 -6
0000c0 f4 c9 f3 0d fe d6 f7 05 fd 0b 19 00 03 00 ef 01
       -12 -55 -13 13 -2 -42 -9 5 -3 11 25 0 3 0 -17 1
0000d0 0a fd 46 f5 05 fc f6 fc 0a fd f8 01 fb 04 06 07
       10 -3 70 -11 5 -4 -10 -4 10 -3 -8 1 -5 4 6 7
0000e0 01 09 04 f7 fd f4 0d 04 f9 f6 2d b5 19 c0 0d f9
       1 9 4 -9 -3 -12 13 4 -7 -10 45 -75 25 -64 13 -7
0000f0 d3 a4 04 2e f2 fb 07 06 0c 33 04 04 f2 fe 2d 07
       -45 -92 4 46 -14 -5 7 6 12 51 4 4 -14 -2 45 7
